…
reprezentacji `1×1`, którą następnie można spłaszczyć do wektora cech i podać na
warstwę klasyfikującą.

Ostatnią warstwą jest `Linear`, która mapuje 32 cechy na 37 klas (liczba etykiet
w zbiorze danych). Cały model jest bardzo lekki (ok. 29.5 tys. parametrów), co
ułatwia późniejszą kwantyzację oraz uruchamianie na urządzeniach o ograniczonych
zasobach.

#figure(
  code(
    ```txt
    ----------------------------------------------------------------
            Layer (type)               Output Shape         Param #
    ================================================================
                Conv2d-1           [-1, 12, 40, 63]             108
           BatchNorm2d-2           [-1, 12, 40, 63]              24
                  ReLU-3           [-1, 12, 40, 63]               0
            ConvBnReLU-4           [-1, 12, 40, 63]               0
             AvgPool2d-5           [-1, 12, 20, 31]               0
                Conv2d-6           [-1, 24, 20, 31]           2,592
           BatchNorm2d-7           [-1, 24, 20, 31]              48
                  ReLU-8           [-1, 24, 20, 31]               0
            ConvBnReLU-9           [-1, 24, 20, 31]               0
            AvgPool2d-10           [-1, 24, 10, 15]               0
               Conv2d-11           [-1, 32, 10, 15]           6,912
          BatchNorm2d-12           [-1, 32, 10, 15]              64
                 ReLU-13           [-1, 32, 10, 15]               0
           ConvBnReLU-14           [-1, 32, 10, 15]               0
            AvgPool2d-15             [-1, 32, 5, 7]               0
               Conv2d-16             [-1, 32, 5, 7]           9,216
          BatchNorm2d-17             [-1, 32, 5, 7]              64
                 ReLU-18             [-1, 32, 5, 7]               0
           ConvBnReLU-19             [-1, 32, 5, 7]               0
            AvgPool2d-20             [-1, 32, 2, 3]               0
               Conv2d-21             [-1, 32, 2, 3]           9,216
          BatchNorm2d-22             [-1, 32, 2, 3]              64
                 ReLU-23             [-1, 32, 2, 3]               0
           ConvBnReLU-24             [-1, 32, 2, 3]               0
            AvgPool2d-25             [-1, 32, 1, 1]               0
               Linear-26                   [-1, 37]           1,221
    ================================================================
    Total params: 29,529
    Trainable params: 29,529
    Non-trainable params: 0
    ```,
  ),
  caption: [Struktura modelu],
) <model>

= Proces kwantyzacji

= Opis procesu kwantyzacji

Celem kwantyzacji było zmniejszenie rozmiaru modelu oraz przygotowanie go do
uruchomienia w aplikacji C++ z wykorzystaniem `ExecuTorch` i backendu `XNNPACK`.
…
